test_codes/results/params_aflw2000_xgtu.npy (npy, 495632 bytes, 1 tensors)

array f4 [1998, 62]
00000000: 1d7e ae3f 3358 433e eeef d9bd 38d8 fc3b
00000010: 3a69 82be a4b3 f83e 2abd 5dbf 0ec9 ac3f
00000020: b077 f13b 15ab c73f f494 613f f2c6 a53c
00000030: db23 dfbd 6a40 01bf c570 0d3f 9555 68be
00000040: 05a9 9cbd 769b c03f 23a0 98bf 535b b13e
00000050: 3c06 933c f3d9 123f cc32 333f d066 3a3f
00000060: 96ea 3fbf 7901 eebe 4cca 413e 75c2 d2be
00000070: 7ff8 5abe 87c6 01bf ab3c 15bf 1f35 70bf
00000080: 22fc 573e 0264 4f3e 124e 30be ebbd b9be
00000090: d178 46bf 0e8f bc3e 3b4b 86be ae03 953d
000000a0: b1fd 8a3e d4b9 2d3d e5f8 263e 5293 a03e
000000b0: 4504 2fbe 82d4 3f3f e100 17bf 4715 f83d
000000c0: 921f 9fbe c779 963e f08c 323f 63fd 31bf
000000d0: 7d25 28bf ad33 39bf 7a44 0ebf 4b16 073f
000000e0: d634 003f 75c9 1abf c7d4 813c de69 193e
000000f0: 2302 b9be 9254 d93b e8e9 4abe 35bb 823e
00000100: 6b08 dabf c5a5 d33f 68c2 a23e 6066 653f
00000110: 4ffd 503f 9b27 79bf f8f0 bf3f c882 d6bf
00000120: 2907 81bf d892 80bd 701e 0cbf 2c08 f93b
00000130: dc53 b73e 8be2 013f 8c8e ce3e 57da a23e
00000140: 0fc5 57bf e75b 883f eee5 1ebe 1a41 aa3e
00000150: bbae 71be 0668 0e3e b1de 7cbe 8541 d4be
00000160: 9ebc 2fbd 4f99 b5bd 47fb 1b3f 35dd ccbe
00000170: 36eb dcbe 8931 b4bd 9352 7fbd 4795 0b3f
00000180: ff85 933e e6fa ac3e 7242 623e e1cb d6bd
00000190: 3e54 0abe 6fe1 2fbe ec54 dc3e 9d26 db3c
000001a0: 93c5 b5bd c363 c3bd bbf3 74be 22b1 5dbd
000001b0: 941d 643e f0a7 593e b9f7 06bf 3db4 83bb
000001c0: 11fb 2dbe 337a 8bbd c697 163f 3163 dcbe
000001d0: 6be3 1abf 7c55 a6bf 1b46 993e eebd 04bf
000001e0: 1106 1bbf 71bf 603e a44f 843e 06db 25be
000001f0: 15d4 bd3e a91d a3be ffb4 bebf 7c8c 9f3f
00000200: 2e67 353e 5b7f 813f 5e8a 89be 2a35 393f
00000210: 2a41 ae3f 379a 72be bb36 1fbe 2095 043b
00000220: a088 48be 6c9f 4b3d 431b 18bd d7bd 073d
00000230: e9d0 843e 7905 0dbf b230 4b3e 3081 e03d
00000240: ffb1 0abf 7867 643d a0af a4be 5ffb 083e
00000250: 5df7 cc3e 5b78 913e 39ca ad3d 7233 1f3e
00000260: 1726 223f 0854 9ebe c7a1 893d e951 613e
00000270: 9257 2abe abf1 bcbb dd50 d43e 4428 8c3d
00000280: 25b6 4d3f 4383 09bf 76d2 7d3e c3e7 463e
00000290: 0a76 db3e effc ed3e c013 edbd 72d8 fabd
000002a0: c66d 94be 1f59 d9bd f619 733d c6d4 213e
000002b0: 582e edbe a095 67bd ed33 36be 7aec 06bd
000002c0: 063e 73be 044b 313e e3c5 3ebe 9467 80be
000002d0: 1611 8d3e ab8a d0be cbd0 86bf a3bb e9be
000002e0: ae63 be3d bac4 fbbd e92c 953f 377c 3abf
000002f0: 84c7 f4be 2c76 ad3e bc0d 263f cfc5 233f
00000300: 472f 42bf 2ead 853f 9d06 103f 2330 263f
00000310: 1828 893f 14fb 713d 9983 65bf bd6d 23be
00000320: 5edf 6f3f 11fd 67be d656 63bf c0b8 b53f
00000330: e037 b3bf 8ad7 2d3f a3eb 1cbf bf5a 8c3e
00000340: 11ed e73e 8e09 913f 13f4 c5bf e639 9dbe
00000350: 14f8 ebbc 68c7 f4bd 3ba6 d93e 4eaf 6abf
00000360: 4b2c 98bf a43d 50bf 6574 003e 8d03 993e
00000370: bea0 a73d e2ea 8dbe 598e a63d cf91 753e
00000380: 0f40 9dbe 4645 dbbe 7a98 893e 2725 233e
00000390: 8afd 483e eb92 6d3e f2e6 f2be 086d b23f
000003a0: e04d cbbe 9d45 db3e 0dda 8bbf 21fd c73e
000003b0: 5380 483f 5445 4abf bc77 5f3e 46b8 a0be
000003c0: 0faf 7bbf eabf 1ebe 8e22 b83e 07e0 2bbf
000003d0: 0fe5 5cbf 1cda b83d 7910 8cbf 9bb2 5bbf
000003e0: eb80 95bf 4afa 52bf 3ea8 fabf 9e99 0140
000003f0: cc3a 24be c8f4 853f 0baa 95bf 040b 0240
1.3632237 0.19076614 -0.10641466 0.007716205 -0.25470906 0.48574555 -0.86616766 1.3498857
0.007369004 1.5599085 0.8811791 0.020236466 -0.10895511 -0.50488913 0.552502 -0.22688897
-0.076494254 1.5047443 -1.192387 0.34639987 0.017947309 0.57363814 0.69999385 0.7281313
-0.74967325 -0.464855 0.18924826 -0.41163984 -0.21383856 -0.50693554 -0.58295697 -0.93831056
0.21092275 0.20252994 -0.17217281 -0.36277708 -0.775281 0.36827892 -0.2622927 0.072760925
0.27146676 0.042413548 0.16305883 0.31362396 -0.17091472 0.74933636 -0.58985716 0.12113433
-0.31078774 0.29389784 0.69746304 -0.6952726 -0.656822 -0.72344476 -0.55573237 0.5276839
0.5008062 -0.6046365 0.01584853 0.14981791 -0.36134443 0.006632396 -0.1981579 0.25533453
-1.7033819 1.6534964 0.31788945 0.89609337 0.8163652 -0.9732606 1.4995413 -1.6758661
-1.008031 -0.06278008 -0.54733944 0.007599851 0.35806167 0.507363 0.4034313 0.31807205
-0.8428506 1.0653046 -0.15517399 0.33252794 -0.2360181 0.1390687 -0.24694325 -0.41456237
-0.04290449 -0.08867132 0.60930294 -0.40012518 -0.43148202 -0.087985106 -0.06233461 0.54524654
0.28813168 0.3378517 0.2209566 -0.104881056 -0.13508698 -0.1717584 0.4303354 0.02675181
-0.08875575 -0.095405124 -0.23921101 -0.054124005 0.22276908 0.2125547 -0.52721745 -0.004019289
-0.16990305 -0.06810417 0.5882534 -0.43044427 -0.6050326 -1.2994838 0.299363 -0.5185231
-0.6055613 0.21948029 0.2584201 -0.16196832 0.37075868 -0.31858566 -1.4898986 1.2464747
0.17715141 1.0116991 -0.26863378 0.72346747 1.3613636 -0.23691641 -0.15548222 0.0020230487
-0.19583368 0.049712583 -0.037135374 0.03314003 0.25940636 -0.55086476 0.19842795 0.109621406
-0.5417785 0.055762738 -0.3216524 0.1337714 0.40032473 0.28412136 0.084858365 0.15546969
0.6333937 -0.30923486 0.0672031 0.22003902 -0.16634968 -0.0057661138 0.41467944 0.068436176
0.80356055 -0.53715914 0.24787316 0.19424348 0.42863494 0.46482036 -0.11576033 -0.12248315
-0.2899 -0.106127016 0.05935093 0.15803823 -0.4632442 -0.056539178 -0.17793246 -0.032940365
-0.23754129 0.17313772 -0.18630175 -0.25079024 0.27552098 -0.40730795 -1.0532469 -0.45650968
0.09296356 -0.12293382 1.165433 -0.72845787 -0.47808468 0.3387922 0.64864707 0.63973707
-0.7585339 1.0443475 0.5626009 0.649172 1.0715361 0.059077337 -0.8965393 -0.1595983
0.93700206 -0.22655131 -0.88804376 1.4197006 -1.4001427 0.6790701 -0.61297053 0.27412984
0.45298055 1.1331041 -1.546511 -0.30708236 -0.028804816 -0.11952096 0.42509636 -0.91673744
-1.1888517 -0.81344056 0.12544401 0.29885522 0.08184956 -0.27718264 0.081326194 0.23981403
-0.30712935 -0.4282629 0.26874143 0.15932141 0.19627967 0.23200576 -0.47441822 1.3939524
-0.3970785 0.42826548 -1.0925919 0.3906031 0.7832081 -0.79012036 0.21823019 -0.3139059
-0.98313993 -0.15502897 0.35963863 -0.67138714 -0.86287016 0.09025976 -1.0942527 -0.85819405
-1.1679968 -0.8241316 -1.9582593 2.025001 -0.16038054 1.0465326 -1.1692518 2.0319223
